…
activations (rw)   : 38,080 B (37.19 KiB) 
ram (total)        : 47,299 B (46.19 KiB) = 38,080 + 9,216 + 3

------------------------------------------------------------------------------------------------------------------------
id  layer (type)       output shape      param #     connected to             macc           rom                
------------------------------------------------------------------------------------------------------------------------
0   input (Input)      (96, 96, 1)                                                                              
    conv2d_0 (Conv2D)  (48, 48, 8)       80          input                    165,896        104 (i)            
------------------------------------------------------------------------------------------------------------------------
1   conv2d_1 (Conv2D)  (48, 48, 8)       80          conv2d_0                 165,896        104 (i)            
------------------------------------------------------------------------------------------------------------------------
2   conv2d_2 (Conv2D)  (48, 48, 16)      144         conv2d_1                 294,928        192 (i)            
------------------------------------------------------------------------------------------------------------------------
3   conv2d_3 (Conv2D)  (24, 24, 16)      160         conv2d_2                 82,960         208 (i)            
------------------------------------------------------------------------------------------------------------------------
4   conv2d_4 (Conv2D)  (24, 24, 32)      544         conv2d_3                 294,944        640 (i)            
------------------------------------------------------------------------------------------------------------------------
5   conv2d_5 (Conv2D)  (24, 24, 32)      320         conv2d_4                 165,920        416 (i)            
------------------------------------------------------------------------------------------------------------------------
6   conv2d_6 (Conv2D)  (24, 24, 32)      1,056       conv2d_5                 589,856        1,152 (i)          
------------------------------------------------------------------------------------------------------------------------
7   conv2d_7 (Conv2D)  (12, 12, 32)      320         conv2d_6                 41,504         416 (i)            
------------------------------------------------------------------------------------------------------------------------
8   conv2d_8 (Conv2D)  (12, 12, 64)      2,112       conv2d_7                 294,976        2,304 (i)          
------------------------------------------------------------------------------------------------------------------------
9   conv2d_9 (Conv2D)  (12, 12, 64)      640         conv2d_8                 83,008         832 (i)            
------------------------------------------------------------------------------------------------------------------------
10  conv2d_10 (Conv2D) (12, 12, 64)      4,160       conv2d_9                 589,888        4,352 (i)          
------------------------------------------------------------------------------------------------------------------------
11  conv2d_11 (Conv2D) (6, 6, 64)        640         conv2d_10                20,800         832 (i)            
------------------------------------------------------------------------------------------------------------------------
12  conv2d_12 (Conv2D) (6, 6, 128)       8,320       conv2d_11                295,040        8,704 (i)          
------------------------------------------------------------------------------------------------------------------------
13  conv2d_13 (Conv2D) (6, 6, 128)       1,280       conv2d_12                41,600         1,664 (i)          
------------------------------------------------------------------------------------------------------------------------
14  conv2d_14 (Conv2D) (6, 6, 128)       16,512      conv2d_13                589,952        16,896 (i)         
------------------------------------------------------------------------------------------------------------------------
15  conv2d_15 (Conv2D) (6, 6, 128)       1,280       conv2d_14                41,600         1,664 (i)          
------------------------------------------------------------------------------------------------------------------------
16  conv2d_16 (Conv2D) (6, 6, 128)       16,512      conv2d_15                589,952        16,896 (i)         
------------------------------------------------------------------------------------------------------------------------
17  conv2d_17 (Conv2D) (6, 6, 128)       1,280       conv2d_16                41,600         1,664 (i)          
------------------------------------------------------------------------------------------------------------------------
18  conv2d_18 (Conv2D) (6, 6, 128)       16,512      conv2d_17                589,952        16,896 (i)         
------------------------------------------------------------------------------------------------------------------------
19  conv2d_19 (Conv2D) (6, 6, 128)       1,280       conv2d_18                41,600         1,664 (i)          
------------------------------------------------------------------------------------------------------------------------
20  conv2d_20 (Conv2D) (6, 6, 128)       16,512      conv2d_19                589,952        16,896 (i)         
------------------------------------------------------------------------------------------------------------------------
21  conv2d_21 (Conv2D) (6, 6, 128)       1,280       conv2d_20                41,600         1,664 (i)          
------------------------------------------------------------------------------------------------------------------------
22  conv2d_22 (Conv2D) (6, 6, 128)       16,512      conv2d_21                589,952        16,896 (i)         
------------------------------------------------------------------------------------------------------------------------
23  conv2d_23 (Conv2D) (3, 3, 128)       1,280       conv2d_22                10,496         1,664 (i)          
------------------------------------------------------------------------------------------------------------------------
24  conv2d_24 (Conv2D) (3, 3, 256)       33,024      conv2d_23                295,168        33,792 (i)         
------------------------------------------------------------------------------------------------------------------------
25  conv2d_25 (Conv2D) (3, 3, 256)       2,560       conv2d_24                20,992         3,328 (i)          
------------------------------------------------------------------------------------------------------------------------
26  conv2d_26 (Conv2D) (3, 3, 256)       65,792      conv2d_25                592,384        66,560 (i)         
------------------------------------------------------------------------------------------------------------------------
27  pool_27 (Pool)     (1, 1, 256)                   conv2d_26                                                  
------------------------------------------------------------------------------------------------------------------------
28  conv2d_28 (Conv2D) (1, 1, 3)         771         pool_27                  771            780 (i)            
------------------------------------------------------------------------------------------------------------------------
person_detect p=210963(214.04 KBytes) macc=7163187 rom=214.04 KBytes ram=37.19 KiB io_ram=9.00 KiB



Generated C-graph summary
------------------------------------------------------------------------------------------------------------------------
…
